Model: "sequential"
_________________________________________________________________
 Layer (type)                Output Shape              Param #   
=================================================================
 conv2d (Conv2D)             (None, 222, 222, 100)     2800      
                                                                 
 max_pooling2d (MaxPooling2  (None, 111, 111, 100)     0         
 D)                                                              
                                                                 
 conv2d_1 (Conv2D)           (None, 109, 109, 80)      72080     
                                                                 
 max_pooling2d_1 (MaxPoolin  (None, 54, 54, 80)        0         
 g2D)                                                            
                                                                 
 conv2d_2 (Conv2D)           (None, 52, 52, 64)        46144     
                                                                 
 max_pooling2d_2 (MaxPoolin  (None, 26, 26, 64)        0         
 g2D)                                                            
                                                                 
 flatten (Flatten)           (None, 43264)             0         
                                                                 
 dense (Dense)               (None, 500)               21632500  
                                                                 
 dropout (Dropout)           (None, 500)               0         
                                                                 
 dense_1 (Dense)             (None, 500)               250500    
                                                                 
 dropout_1 (Dropout)         (None, 500)               0         
                                                                 
 dense_2 (Dense)             (None, 1)                 501       
                                                                 
=================================================================
Total params: 22004525 (83.94 MB)
Trainable params: 22004525 (83.94 MB)
Non-trainable params: 0 (0.00 Byte)
_________________________________________________________________


Epoch 1/10
71/71 [==============================] - 117s 2s/step - loss: 0.6296 - accuracy: 0.6413 - val_loss: 0.4729 - val_accuracy: 0.7610
…
